test.pth (torch_old, 797917 bytes, 6 tensors)

fc1.weight f4 [200, 784]
000000 d8 44 12 bd 6a fe 42 bc 26 50 28 bc bc 22 fa bc
       -0.035710186 -0.011901477 -0.010273015 -0.03053414
000010 c0 4d b0 3b 48 99 05 3c f0 a3 38 bb ac 08 c2 bc
       0.0053803623 0.008154221 -0.0028173886 -0.023685776
000020 ce b6 e5 bc b3 7c a2 bc ab 80 01 3d 40 a9 1f ba
       -0.02804127 -0.019834852 0.031616848 -0.0006090589
000030 47 9f a2 bc b8 fc 57 bc 80 6d f3 3b 38 ed 4d bc
       -0.01985134 -0.013182811 0.007428825 -0.012568764
000040 60 40 a4 3c d5 8e a1 bc 83 ec f0 bc f0 be 5f 3c
       0.020050228 -0.019721428 -0.029409653 0.013656363
000050 9c bb ab bc aa 1d 8b bc 73 fa 09 3d 05 a0 04 3d
       -0.020963483 -0.016981918 0.033686113 0.03237917
000060 20 46 54 bc 11 26 04 3d 88 a1 fe bc a0 79 8a ba
       -0.012956172 0.032262865 -0.031082883 -0.0010564812
000070 7e b9 db 3c b3 62 fb bc 9e 26 06 bd 50 8c 82 3c
       0.026821848 -0.030686712 -0.032751672 0.015936047
000080 f5 77 54 bc ca f5 d4 ba 63 6b f5 bc e0 18 98 3b
       -0.012968053 -0.0016247567 -0.029958433 0.004641637
000090 33 ee 82 bc 53 68 74 3c 37 5f da 3c 01 10 09 3d
       -0.015982723 0.014917451 0.02665673 0.03346253
0000a0 68 41 a2 3c bf 72 00 3c 73 2a 60 bc ea 4e fb 3c
       0.019806579 0.007839858 -0.013681996 0.030677278
0000b0 d9 2e c4 bc c8 bc 71 bc b3 df 23 3b 2a 72 fe 3b
       -0.02394812 -0.014754482 0.0025005161 0.0077650743
0000c0 57 dd 5c 3c 0b 2b 4d 3c 59 16 e9 3c 48 7d 7b bc
       0.013480506 0.012522469 0.028453039 -0.015349694
0000d0 80 b4 98 39 0e a7 b8 3c 00 f4 3f 3a c8 aa d1 3c
       0.00029126182 0.022540595 0.00073224306 0.02559413
0000e0 95 25 c7 bc 16 d8 ed 3c aa de a7 bc 21 69 78 3c
       -0.024309913 0.029033702 -0.020491917 0.015161783
0000f0 6b 8f 89 bb 9a bc 25 3c 5b 6a 89 bc 59 8c ee bc
       -0.004198005 0.010115767 -0.016774347 -0.029119657
000100 0c 67 34 bd 2b 78 29 bd d0 7a b7 bc 44 6b bc bc
       -0.044043586 -0.041374367 -0.022397429 -0.023000367
000110 12 f8 c4 bc b1 50 2d 3c 69 5a be bd 7d 87 5f bd
       -0.02404407 0.01057832 -0.09294588 -0.05457257
000120 4b 4c 40 3c 5a 10 5d bc eb d6 06 bb dd 3c b7 bb
       0.01173694 -0.013492668 -0.0020574878 -0.0055919723
000130 c1 69 0d bc d8 ea 45 bd 0a 88 e4 bc 70 0e 37 bc
       -0.008631171 -0.048319668 -0.0278969 -0.011172876
000140 2b 7d 03 bb 0d 2b 89 3c 9c 3d 09 3c 92 eb 4a bc
       -0.002006362 0.016744161 0.008376505 -0.012385266
000150 ae 2a 0f bc 9b 8a 0f 3d 56 c8 03 bd 5b 55 bc 3b
       -0.008738203 0.035044294 -0.032173477 0.00574748
000160 ca 37 44 3c 3a e6 09 bd dd 63 06 3c 78 3a 57 3c
       0.011976192 -0.033666827 0.00820252 0.013136499
000170 f8 15 0a 3d 71 3f 28 3c 20 ef 58 b9 1c b4 2d 3b
       0.033712357 0.010269032 -0.00020688446 0.0026505059
000180 b9 26 db 3c 38 4c d9 bc f4 90 26 3d fa ec 11 bc
       0.026751863 -0.026525602 0.04066558 -0.008906597
000190 1e a5 49 3c f6 1b 55 3c 99 82 60 bc 96 3d 38 bc
       0.012307433 0.013007155 -0.013703012 -0.011245152
0001a0 c8 2e 0f 3d e0 2c 8c bb c0 52 09 bd 41 64 30 bb
       0.034956723 -0.0042778105 -0.033526182 -0.0026915225
0001b0 51 d8 ea bc e8 9f 90 3b a1 51 db 3c 80 12 41 ba
       -0.0286676 0.0044135936 0.026772322 -0.00073651224
0001c0 e2 0e 86 3c ab b1 0a 3d dd 45 0c 3d 3c a9 cc 3c
       0.016364519 0.033860844 0.034246314 0.024983041
0001d0 65 09 16 3b 40 12 00 bc 32 ab 04 bd b7 b4 73 bc
       0.0022893783 -0.007816851 -0.032389827 -0.014874629
0001e0 86 d4 32 3c 0a dd 60 3b 1c ac 4f 3c a1 36 af 3c
       0.010914927 0.0034311437 0.012675311 0.021388354
0001f0 aa d3 ab 3b 11 d5 c5 3c e2 4c 1e 3d 0b 35 e6 3b
       0.005243738 0.02414945 0.03864754 0.007025366
000200 7e 87 41 3d 05 09 f8 ba d9 f8 0a bc 17 a3 0f bd
       0.047248356 -0.0018923586 -0.0084821815 -0.035067644
000210 b0 85 96 bc 47 50 cf bc fe c7 c4 bc b2 8a 66 bd
       -0.018374294 -0.025306834 -0.024021145 -0.056284614
000220 a2 c2 f2 3c 3b 7f 9e 3c 73 5e 25 3d 11 13 d6 3b
       0.029633824 0.019347778 0.040373277 0.0065330346
000230 5f 11 0c 3d d6 55 0c bd d8 62 46 bb 83 73 47 bb
       0.034196254 -0.034261547 -0.0030271318 -0.003043384
000240 e4 8e f0 bc a5 74 42 3c 93 7e bd bc 0c ec 00 3c
       -0.02936501 0.011868631 -0.023131644 0.007868778
000250 7e ee 82 bb 0b ad 18 bd 4e 3a 3b bd 72 66 f0 ba
       -0.0039957156 -0.0372744 -0.0457099 -0.0018341078
000260 a7 4d ec bb 34 09 df 3c cb b6 8c bc 62 28 05 3d
       -0.0072114053 0.027226068 -0.017177006 0.032509215
000270 0e a0 2c 3c 9e 32 6e bc 78 92 52 3b 3d 66 f4 38
       0.010536207 -0.014538435 0.003213076 0.0001165387
000280 a4 8e b0 3c a6 6d 08 3d 4e 2d 9d 3c 1e f8 90 bb
       0.021552391 0.033307694 0.019186642 -0.004424109
000290 2a 3f d2 bc e1 a4 6f 3c 86 d6 fc 3b 21 e2 a1 bc
       -0.025664885 0.014626713 0.007716003 -0.019761147
0002a0 4a 47 f5 3c a2 60 1d bc 83 ee 30 3b 24 df cf 3c
       0.02994122 -0.009605559 0.0026997633 0.025374956
0002b0 3f e4 40 bd af 3a 9a 3c 14 7c df 3c 40 7a 8f 3c
       -0.047092672 0.01882681 0.027280845 0.017514348
0002c0 a5 99 97 bc 62 f3 58 bc b9 17 ef bb 71 b1 79 3c
       -0.01850588 -0.013241621 -0.007296529 0.015240059
0002d0 69 38 2d 3c c8 b1 c1 3c 75 07 76 bb 67 4b a2 b9
       0.010572531 0.023644343 -0.0037541066 -0.00030955227
0002e0 66 bb e2 3a a2 15 67 3c cb 1d 2b 3d b6 48 9c 3c
       0.0017298281 0.014104279 0.04177646 0.01907764
0002f0 62 9d be 3c 10 17 12 3d 85 a7 ee 3c 92 9a 05 3d
       0.023268405 0.035666525 0.029132614 0.032618113
000300 a3 51 2f 3d 66 33 bd 3c 8b e7 78 bb 90 b6 98 bc
       0.042802464 0.023095798 -0.0037979807 -0.01864174
000310 da 17 fd 3c 9d f4 e7 3c 6a 6d ae 3c e8 5a cc 3c
       0.030895162 0.028314883 0.021292407 0.024945691
000320 81 47 f7 3b 16 e4 11 3d 26 f8 bf bc 6f 29 fa 3c
       0.0075463657 0.03561791 -0.023433756 0.030537335
000330 c0 4d 12 3c 49 a8 55 bc 96 86 30 3c a3 a8 7b bc
       0.00892967 -0.013040611 0.010774275 -0.01536003
000340 11 c1 98 bc ed d0 0b bd 92 83 c8 bc 04 d6 1a bc
       -0.018646749 -0.034134794 -0.0244768 -0.009450439
000350 bc 47 8a 3c c5 4b 48 3d 15 0a 52 3d e0 1a 1b bb
       0.016879909 0.048900384 0.051279146 -0.0023667142
000360 b5 de c3 3c 8f f7 1f bc 26 f6 44 3c 1f ef b0 3c
       0.023909906 -0.009763612 0.012021577 0.021598397
000370 b1 d7 c9 3c d9 76 eb 3c 60 09 52 3c 5f 24 2e bd
       0.024638982 0.028743194 0.012819618 -0.042515155
000380 3d 69 0f 3d 79 af 27 3d 8a f6 1b bc fc ad 1f bc
       0.035012472 0.04093883 -0.009519229 -0.009746071
000390 f8 8d b0 bc ae 61 70 3c 61 4a e5 3c 7f d8 21 3d
       -0.021552071 0.014671726 0.027989568 0.039513107
0003a0 ac d4 7f 3c c6 d0 38 3d 74 f6 31 3d 2b 82 39 ba
       0.01561467 0.045120977 0.043447927 -0.00070765865
0003b0 db 68 7e 3d 38 43 c6 3c 15 30 a2 3c 96 8b ef 39
       0.062111717 0.024201974 0.019798318 0.00045689632
0003c0 3b c5 91 3d a8 a8 15 3c b5 67 9a 3d 2b 61 64 3d
       0.07117697 0.009134449 0.07539312 0.05575673
0003d0 74 0d e0 3b b7 40 0b bb 7b d2 92 3d 8e f5 81 3d
       0.0068375412 -0.002124829 0.07169052 0.06345664
0003e0 fe 2d b1 3d e0 e9 8e 3d 2d fd 01 3d cf 3c 02 3d
       0.086513504 0.06978202 0.031735588 0.031796273
0003f0 73 ab f9 3c 48 da a8 3b f2 7b c0 3b 2b e0 1a 3d
       0.030477261 0.0051529743 0.0058741504 0.03781144

fc1.bias f4 [200]
000000 ce 55 35 3c b5 d3 7e 3d 25 2b bf 3c e5 fe 01 3c
       0.011067821 0.06221362 0.023336003 0.007934307
000010 d3 98 a1 3c ad ea 02 3d d5 20 04 3d 5a 7b ac ba
       0.019726193 0.031962086 0.032257874 -0.001315932
000020 95 e8 f0 bc b5 12 09 3c 04 95 3d bd 88 ce f8 3c
       -0.029407779 0.0083662765 -0.04628469 0.03037192
000030 28 68 1a bd bf 2a 28 3d 88 41 53 bd 46 b8 3d bc
       -0.037696987 0.04105639 -0.051576167 -0.011579579
000040 d0 ea b4 3b d9 09 db 3c 9d f9 ba 3b 15 51 d9 bb
       0.005521156 0.026738094 0.0057060258 -0.00663198
000050 26 b3 53 3d 1c 1b a5 bc c6 5e 50 3d 44 20 8a 3d
       0.05168452 -0.020154528 0.050871633 0.067444354
000060 be 80 ec 3b e5 ce 88 3c 53 57 aa 3c d8 88 69 3d
       0.0072174957 0.016700218 0.020793593 0.05701527
000070 ea e9 3f bd 2b d1 79 3c 36 a4 a3 bc 67 8d 8d 3d
       -0.046853937 0.015247623 -0.019975763 0.06911736
000080 2e e6 8e bc a1 8e 6b 3d 9b 8b ce bc ee 33 8f 3c
       -0.017443743 0.05750907 -0.025213053 0.017480817
000090 3b 71 8b 3c 53 b4 06 3c b7 75 a1 bc f8 53 9d 3c
       0.017021766 0.008221704 -0.019709451 0.019205078
0000a0 e5 46 84 bb 81 54 cc bb fd f5 42 3c 6e ea b6 3d
       -0.0040367716 -0.0062356596 0.0118994685 0.08931433
0000b0 71 65 83 3c b6 36 2d 3d c8 5a 24 3d 9a 9e e3 3c
       0.016039582 0.042288505 0.04012564 0.027785588
0000c0 0b 2f 3b 3d 0b 75 e4 3b c3 69 86 bd 7a 5c 44 3d
       0.04569916 0.0069719604 -0.06563141 0.047939755
0000d0 ee b6 ca 3d 42 79 19 bd ca ee fa bc 89 7d 43 3d
       0.09898172 -0.037469156 -0.030631442 0.04772714
0000e0 34 7a 46 bd 9b a5 73 bc bc 66 51 3d d3 f2 8f 3c
       -0.048456386 -0.014871026 0.051123366 0.017571842
0000f0 83 10 9f bc dd 4e 4f 3c 71 6d 2f bc 69 67 17 3d
       -0.019417053 0.01265308 -0.010707245 0.036963854
000100 78 51 9b bb 70 41 bd 3b 5f 43 4f bd d6 c3 fe bc
       -0.0047399364 0.005775623 -0.05060136 -0.031099241
000110 04 ec 06 bd 19 b9 e8 3d c8 56 97 3c 1e 6b 7b 3d
       -0.032939926 0.113634296 0.018473998 0.06138145
000120 86 bd ba bb 59 51 ca 3d bc 65 47 3d 76 00 73 3c
       -0.0056988625 0.09878797 0.048681006 0.014831653
000130 15 14 56 3c c1 c0 40 3d b4 c3 4b 3d c9 31 98 3c
       0.013066311 0.047058824 0.049747184 0.018578427
000140 bb fb b9 3c 58 3a 50 3d f8 13 28 3c 67 36 1c 3d
       0.022703042 0.05083689 0.010258667 0.03813782
000150 51 03 ec 3d b5 29 5b ba 85 5a fd bc 9c cf bb 3c
       0.1152407 -0.0008360402 -0.030926952 0.022926144
000160 0b bb a6 3d e1 d4 58 3d 41 ab 6a 3d f6 e6 1e 3d
       0.08141144 0.052937392 0.057292227 0.03879448
000170 5f d6 9e 3d 8c 09 2b 3d 7e c0 59 3c e8 3c 5a bc
       0.07755732 0.04175715 0.013290523 -0.013320185
000180 65 5e 8c 3c 74 47 c2 bb 13 eb 3e 3d f9 97 d1 3c
       0.017134855 -0.005928928 0.046610903 0.025585162
000190 30 56 13 bb 6f 5b c3 3d 65 7d af 3c 3c 5a 27 3c
       -0.0022481792 0.09538924 0.021422097 0.010214385
0001a0 3f de da b9 7b 08 3d 3d 39 f0 fd 3b 9e 08 98 3d
       -0.00041745786 0.046150666 0.007749584 0.074235186
0001b0 a6 46 e6 bc 57 9c 3c 3d 1d 34 7c 3d 79 0b 62 bc
       -0.02810986 0.046047535 0.061573137 -0.013796681
0001c0 b1 d6 56 3d bc 79 a7 3c 93 3f fe 3c d3 65 81 bc
       0.05245084 0.02044379 0.031036174 -0.015795624
0001d0 5b 65 17 3d 25 6a 34 3d 20 ab cb 3b 72 2b 7f 3d
       0.036961894 0.04404654 0.006215468 0.062297292
0001e0 a4 73 8d bb 38 10 87 3c 06 fc c8 bc 35 7c 61 bd
       -0.004316764 0.016487226 -0.024534237 -0.055050094
0001f0 36 42 33 3d 57 1c 20 bc be 89 0e bc 03 ab 8f 3b
       0.043764316 -0.009772382 -0.0086998325 0.0043844
000200 fa fd 78 3d 8d 56 5a bd 58 2f 82 3c 7f f1 ed 3a
       0.060789086 -0.053305198 0.015891716 0.0018153636
000210 33 d4 49 3d e0 a5 d3 bb 21 12 8e 3d 96 b5 26 bd
       0.049274635 -0.006458983 0.069370516 -0.040700518
000220 43 8e 67 3d e4 cc ee 3b 4e 05 2e 3c 36 44 1c 3d
       0.056532156 0.0072876085 0.010621382 0.03815099
000230 4c 1a ad bb 6a 73 6b bd 53 d1 26 3d ed 77 7e 3d
       -0.005282676 -0.057483114 0.04072697 0.06212609
000240 d1 98 59 3d 1d c5 19 bd e8 51 a8 3c 80 fb 2a 3c
       0.053124253 -0.037541497 0.020546868 0.010435939
000250 99 87 02 bd e7 82 cf 3d 36 8c 5b 3d 7a 44 ec 3c
       -0.031867597 0.101323895 0.053600512 0.028841246
000260 7e 2a 80 3d 1b 2f 52 3c 5b 51 ca bc 49 3c 06 bd
       0.06258105 0.012828614 -0.024696996 -0.032772336
000270 58 05 91 3d 08 50 e9 bc e3 52 14 bd b9 cc 05 3c
       0.07081097 -0.028480545 -0.03621186 0.0081664855
000280 5e 25 15 bd 08 17 c1 3c 7a 53 22 3d df 6b bf bb
       -0.03641259 0.023570552 0.03963039 -0.0058417167
000290 bc cc 60 3c 9f 54 be 3d 92 f8 8b bc 24 63 12 bd
       0.0137206875 0.09293484 -0.017086301 -0.03573908
0002a0 d2 4f 18 3c 33 bf 38 3d e2 15 ba 3b 7f bf b4 3c
       0.009296374 0.045104217 0.005678878 0.022063969
0002b0 c7 81 a9 bc 85 aa bd 3c a9 b2 eb 3c cf 13 a6 3d
       -0.020691765 0.0231526 0.028771715 0.08109247
0002c0 4f d6 38 3c 86 17 34 bd 31 82 10 3d 04 96 ad bd
       0.011281564 -0.043967746 0.03528041 -0.08475879
0002d0 36 19 01 3d 87 c5 0a bd 3a 74 3a 3d ef 9e cb 3c
       0.031518184 -0.033879783 0.045521 0.024856059
0002e0 6b 20 b1 3c d6 93 8d 3d 5b 00 05 3e 77 4d 09 3c
       0.021621903 0.06912963 0.12988417 0.008380285
0002f0 e9 be 41 3d c6 b4 05 bd 2f 09 34 3b c9 45 ab 3d
       0.047301207 -0.032643102 0.0027471294 0.0836292
000300 50 ad 3d bb a6 c0 8e 3d ee 98 e5 bc 4c 68 6c 3d
       -0.0028942414 0.069703385 -0.028027024 0.057716653
000310 98 ed d1 3c ab 15 0b bd e3 76 97 3d ad b7 23 3d
       0.025625989 -0.03395621 0.07395723 0.03997009

fc2.weight f4 [200, 200]
000000 1d c4 85 bd 50 59 15 3d 8e a5 48 bd e2 30 2c 3d
       -0.06531546 0.03646213 -0.04898601 0.042038806
000010 46 11 86 bd f3 6e 08 bd 74 27 65 bc 6b 77 51 bd
       -0.065462634 -0.033308934 -0.013986457 -0.051139276
000020 32 8a eb bc b8 e3 40 3d 40 df d7 3c 58 3b 44 3d
       -0.02875242 0.04709217 0.026351571 0.047908157
000030 98 60 3e 3c e8 62 92 3c c8 57 79 3c 62 11 49 bd
       0.011619709 0.017869428 0.015218683 -0.049088843
000040 dc af 3f bd 03 ce 83 bd c0 e5 55 3d 12 5f 86 bc
       -0.046798572 -0.06435778 0.05222106 -0.016402755
000050 70 ff 25 bd 18 65 06 bd 96 7f 3b bd b0 df 52 3c
       -0.040526807 -0.032811254 -0.045775972 0.012870714
000060 cc 39 8c bd 35 f7 56 bd 9b 21 21 bd 68 88 fa bc
       -0.068469614 -0.05248185 -0.03933869 -0.030582622
000070 fc e2 1c 3d 30 e2 3e 3c d3 00 36 bd 9c 03 e8 bc
       0.038302407 0.011650607 -0.04443438 -0.028322034
000080 bc 69 73 bd 4b 33 58 bd e8 05 18 3c 70 53 53 3c
       -0.059427008 -0.05278329 0.009278752 0.012898311
000090 fa 05 7f bd f8 d5 ac bc 6c 1c 8d bd 1a 3f 21 3d
       -0.06226156 -0.021098122 -0.06890187 0.03936682
0000a0 0e 93 bf bc fd 90 1b bd 30 5e e0 3c 67 76 7d bd
       -0.02338555 -0.03798007 0.027388662 -0.061880495
0000b0 5a c4 56 3d 7a 3b 88 bd ba f5 64 bd 26 e2 bf bc
       0.05243335 -0.06651969 -0.055898406 -0.023423266
0000c0 7a 61 54 3d 20 d2 f2 3c 0c bd bc bc 1a be 68 3d
       0.051850773 0.029641211 -0.023039363 0.05682192
0000d0 e2 2e d6 bc 1a ac 15 bd 28 1a b6 bc 00 30 52 bc
       -0.026145402 -0.036541082 -0.02222927 -0.012828827
0000e0 40 88 fe 3c a4 6a 20 bd 58 63 29 bd 78 4e 68 bc
       0.031070828 -0.0391642 -0.041354507 -0.014178865
0000f0 a6 2b f5 bc 00 0b ea b9 2c 60 e6 bc 06 9e 16 bd
       -0.02992804 -0.00044640154 -0.02812203 -0.036771797
000100 80 f2 ab 3b 28 8f 85 bc 50 ee 44 3c 9c 54 1e bd
       0.005247414 -0.016303614 0.012019709 -0.03865491
000110 c2 ce 0d bd b7 8b 44 bd af 8c 08 bd b6 c6 15 3d
       -0.034621008 -0.047984805 -0.03333729 0.03656646
000120 60 c5 d6 3b 42 b3 0d 3d f6 47 7a 3d 80 32 ea ba
       0.0065542907 0.03459478 0.061103784 -0.0017867833
000130 80 de de 3b 98 60 12 bc 67 09 30 bd 4f a7 4f bd
       0.0068014264 -0.008934163 -0.042977717 -0.050696667
000140 e8 d7 92 3c d5 1e 55 bd be 7c 3b bd d0 a4 4c 3d
       0.017925218 -0.052031357 -0.04577326 0.049961865
000150 ec 30 59 bd 80 86 4f bb 1f 00 86 bd 7e d4 22 bd
       -0.05302517 -0.0031665862 -0.06542992 -0.03975343
000160 38 fe 70 3c ee da de bc 80 c0 2f bc 6b f6 77 bd
       0.014709048 -0.027204003 -0.010727048 -0.060537737
000170 f8 1d 75 bd 6c 6f 85 3c 18 08 39 3c 0c cd c7 bc
       -0.059843034 0.016288482 0.011293434 -0.024389766
000180 d2 e0 4f 3d 18 ae 9d bc e7 b5 8c 3d 1c 40 04 3d
       0.050751515 -0.019248053 0.068706326 0.032287702
000190 00 69 aa 39 8e ce 65 bd fc cb 17 3d c5 60 86 3d
       0.00032503158 -0.05610519 0.03705977 0.06561426
0001a0 c0 d1 f8 3c 67 f8 13 bd 22 6f e2 bc 02 ac c0 bc
       0.030373454 -0.036125567 -0.027640883 -0.02351952
0001b0 16 5a 5a bd 02 09 1f 3d 44 e9 52 3d 0e 86 83 bd
       -0.05330857 0.03882695 0.05149199 -0.06422053
0001c0 fe 67 8e bd 53 ce 79 bd 73 5a 77 bd b4 e1 fc 3c
       -0.06953429 -0.06098778 -0.060388993 0.030869342
0001d0 16 5b 17 3d c0 e0 44 3d 14 fc 8c bc 1e 3d ba bc
       0.0369521 0.0480659 -0.017210044 -0.022734221
0001e0 72 24 73 3d 4e 9a 61 3d 32 51 55 bd 84 ed b0 bc
       0.05936093 0.055078797 -0.052079387 -0.021597631
0001f0 50 4e d6 bb 40 d3 b2 3a 48 08 d2 3c 21 8c 67 bd
       -0.0065400973 0.001364328 0.025638714 -0.05653012
000200 4c d1 2f 3d 07 d8 0f bd fa b7 ad bc 22 b7 0b 3d
       0.04292421 -0.03511813 -0.02120589 0.034110196
000210 80 8f 71 3c 88 51 77 bc 40 fa 10 3b 18 fe 9b 3c
       0.014743686 -0.015095122 0.0022121817 0.01904206
000220 00 0f 82 b9 5c 54 3d 3d d0 0c af bb ac 1c 89 3c
       -0.00024806708 0.04622303 -0.0053421035 0.016737305
000230 c0 d1 89 bd 84 78 8c 3c 3a 1b 80 bd b4 a8 22 bc
       -0.0672946 0.01714731 -0.06255193 -0.009927917
000240 c8 df 34 3c f9 c4 0e bd 25 5a 5b bd 77 8d 0f bd
       0.011039682 -0.034855817 -0.053552765 -0.03504702
000250 e4 2b 32 bc 34 bd 4f bd f4 b9 75 bc c0 c4 ba bb
       -0.010874722 -0.050717548 -0.014997948 -0.005699724
000260 29 2e 75 bd 50 50 92 3b ec 09 f5 3c b8 5d 81 bc
       -0.059858475 0.0044651404 0.029911958 -0.015791759
000270 2f d3 51 bd 3e 32 7a 3d 64 6a 46 bd a0 64 65 3b
       -0.05122679 0.06108307 -0.048441306 0.0035002604
000280 84 ad 03 3d 48 e3 3b 3c 18 c3 d6 3c bd ae 8f bd
       0.0321479 0.011467762 0.026216075 -0.070157506
000290 4c 62 81 bd 28 ba 05 3c f6 ed 49 bd bc 6c 75 bc
       -0.06317577 0.008162059 -0.049299203 -0.014979538
0002a0 20 4d 68 bc ce 12 65 3d 88 89 86 bd 00 63 ab 3c
       -0.014178544 0.055926137 -0.06569201 0.02092123
0002b0 70 ce 24 3c 64 a4 82 bd 8a ac 6a 3d ee 70 33 3d
       0.010058984 -0.06379011 0.057293452 0.04380887
0002c0 18 79 78 bd 0c 19 dc 3c 24 82 88 3c ac 27 f5 3c
       -0.06066236 0.026867412 0.016663618 0.029926144
0002d0 82 6c 89 bc 04 9e 34 bd a8 8b c9 3c a8 d6 15 3c
       -0.016775373 -0.044096008 0.024602726 0.009145416
0002e0 7a cd f6 bc c8 1a e5 bc c0 80 b0 3c d4 28 c4 3c
       -0.030127276 -0.027966872 0.021545768 0.02394525
0002f0 0a cf 0e 3d 02 a3 68 3d 96 3d 3d bd 62 a3 c9 bc
       0.034865417 0.05679608 -0.04620131 -0.02461404
000300 11 16 11 bd 08 62 01 bd a0 7b 3c 3d c0 15 32 bb
       -0.035421435 -0.03158763 0.046016335 -0.0027173609
000310 36 a7 bb bc c4 d5 ce 3c 90 f3 7c bc aa 51 69 bd
       -0.02290688 0.025248416 -0.015438929 -0.056962647
000320 2c 8a 55 3d 69 1a 44 bd 24 6b 8d 3d 67 1c a9 3c
       0.052133724 -0.04787675 0.06905201 0.020643426
000330 4d 4f c6 3c c6 67 8d bd f8 5e bf bd c6 63 bf 3d
       0.024207735 -0.06904559 -0.09344286 0.09345202
000340 97 c6 26 3d 0c 8c 1d 3d 6c 46 80 3d 5a bc 81 bd
       0.040716734 0.038463637 0.06263432 -0.06334753
000350 eb ea dc 3d 1d 0d 97 3c be 47 1d bd 00 3c c9 3c
       0.107869945 0.01843887 -0.038398497 0.024564743
000360 d5 82 4f ba 44 43 51 bd bc 09 be 3d c8 42 b1 bc
       -0.0007915919 -0.05108954 0.092792004 -0.02163829
000370 96 8b 0c 3d e7 2b eb bc 07 c2 a5 bc f6 44 75 3d
       0.034312807 -0.028707458 -0.020234121 0.05988022
000380 63 94 e6 3b 46 07 34 3b a4 48 c8 3c f6 26 a2 3d
       0.007036732 0.0027470156 0.0244487 0.079175875
000390 e8 ac e4 3d cf c0 39 3d 5d 5a 83 bc 60 3c cb bb
       0.11165792 0.045349892 -0.0160343 -0.0062022656
0003a0 92 a3 87 3a 90 53 45 3d 7c bd ad 3d 6f 2e 7c 3d
       0.001034843 0.048175395 0.08483407 0.06156772
0003b0 6f d1 9d bc fd 6d 1e bb 50 8f f9 bc 91 2b 02 3d
       -0.019264905 -0.0024174445 -0.030463845 0.03177983
0003c0 f5 a1 49 bc 34 e5 20 bc 65 a2 54 bd e2 dd 6f be
       -0.01230668 -0.009820271 -0.051912684 -0.23424485
0003d0 c0 25 ba bc 3c 28 ba 3a 51 7a 17 3d 0e 61 2d 3d
       -0.022723079 0.0014202665 0.036981884 0.042328887
0003e0 40 f1 d1 3c 33 38 e5 3d b1 a1 6e bd 98 70 66 3d
       0.025627732 0.1119236 -0.05825967 0.05625972
0003f0 5d 56 32 bd f6 82 03 be 59 e9 7c 3d 45 0d 96 3d
       -0.043539394 -0.12842926 0.061745975 0.0732675

fc2.bias f4 [200]
000000 c5 af 90 bd 26 ba 14 3c 9d 02 64 3c 4d 57 0b 3c
       -0.070647754 0.009077584 0.013916639 0.008504701
000010 4c 47 4d bd bc 93 91 3c 5f f4 2b 3c 78 54 01 bd
       -0.050116822 0.01777064 0.010495274 -0.031574696
000020 7d a7 8d 3d 40 3c 91 bd 00 cb 9b 3d f1 aa 9e 3c
       0.069167115 -0.0709157 0.076070786 0.01936862
000030 00 3b 90 bd 83 f2 9a bc ac 01 78 3d d8 53 6b bd
       -0.07042503 -0.018914467 0.06054847 -0.057453007
000040 98 c0 fd bc 63 97 2a 3d fe b1 91 3d 76 9b e4 3d
       -0.030975625 0.04164828 0.071140274 0.11162464
000050 64 ef df bb c0 c1 bf ba fc 7f 27 bd bb f8 10 bd
       -0.0068339575 -0.0014629886 -0.04089354 -0.035393458
000060 2c c9 27 bd 5e 08 e4 3c 44 ae 98 3d cb 70 51 3d
       -0.040963337 0.027836021 0.074551135 0.05113296
000070 09 7a 00 3d 4b 63 82 3d 89 e4 cf 3c f5 ef 05 bd
       0.03136638 0.06366595 0.025377529 -0.032699544
000080 ee 11 01 3d ec ce 22 3c 14 3f fa 39 7a 60 c1 3c
       0.03151124 0.009937029 0.00047730713 0.023605574
000090 bd ae d7 3c 44 3d 52 3c 02 00 f5 bc 73 c5 1f 3d
       0.026328439 0.01283199 -0.02990723 0.03900666
0000a0 73 c1 5d 3d d3 8e 3c 3d c4 08 0a bd 3f 28 95 3c
       0.054139566 0.046034645 -0.033699766 0.018207667
0000b0 51 c6 9d bd f1 19 d3 3c 2b cc 9e bc 1b b5 8e bd
       -0.077038415 0.025769206 -0.019384464 -0.06968137
0000c0 07 1b c3 3d 7e 78 8f 3d 39 18 fe bc c5 1d 91 bc
       0.095266394 0.07005404 -0.03101741 -0.01771439
0000d0 46 1c d9 bc f0 c8 94 3c 09 4c 43 bd 06 86 37 3d
       -0.02650274 0.01816222 -0.047679935 0.04480555
0000e0 b3 fb b1 3c 4c 13 20 bd b1 61 d6 3c d0 3e 8a 3d
       0.021726465 -0.039080903 0.02616963 0.06750262
0000f0 32 32 44 3c a6 b4 08 3c 86 66 32 bc 4a 30 dc 3c
       0.011974858 0.008343851 -0.010888701 0.026878495
000100 db 9a ac 3d 2a 1f 88 3c 41 82 5f 3d 3a e1 a2 3d
       0.08427974 0.016616423 0.05456758 0.07953115
000110 9c 71 92 3d 94 16 26 bd 44 17 70 bc e7 70 4c 3d
       0.071505755 -0.040548876 -0.014653984 0.04991236
000120 10 da 82 3d 2e 56 70 bd 32 bd 84 3a 5e 27 55 3c
       0.06389248 -0.058675937 0.0010127185 0.013009874
000130 de fe bd bd cf 65 51 bd e2 4b 22 bd c8 bc 46 bd
       -0.09277128 -0.051122483 -0.03962315 -0.04851988
000140 f2 db 17 3c ac d4 62 3d 8e dd d8 3c 9b fe fc 3c
       0.009268748 0.0553786 0.026472833 0.030883124
000150 50 be 7e bd b9 7a ca 3c ca a0 14 bd 06 56 68 bd
       -0.062193215 0.024716722 -0.036286153 -0.056722663
000160 da 88 1b 3d b4 eb a4 3d 1a cf 0d 3d 8c b4 02 bd
       0.03797231 0.08052769 0.034621336 -0.031910464
000170 13 0c 86 bc 5a f1 b6 bd 67 ec 56 3d e0 2d 2f 3d
       -0.01636318 -0.08932753 0.052471545 0.04276836
000180 2a 4f a1 3d 3b 51 1a 3d cc 3a b7 3d 0a 02 0f 3d
       0.078764275 0.037675124 0.089467615 0.034914054
000190 f4 7a ae 3c 48 d4 b3 3c 59 b8 26 bd 64 5b 53 bd
       0.021298863 0.02195181 -0.04070315 -0.05160083
0001a0 48 22 19 3d 2c 1b 8e bd b0 f4 89 3d b4 04 5f bd
       0.03738621 -0.069387764 0.067361236 -0.054447845
0001b0 bd a0 4d bd 18 fe 98 bd 96 85 a7 bc b2 ac 87 3d
       -0.05020212 -0.074703395 -0.02044944 0.06624736
0001c0 d2 7a 53 3d f4 f0 1a 3b 98 f0 04 bd f4 19 81 3c
       0.051630802 0.0023642154 -0.03245601 0.015759446
0001d0 6e 16 90 3c 91 90 da bc cb cb 1a 3d bf 40 54 3d
       0.01758882 -0.026680263 0.03779201 0.05181956
0001e0 79 a3 9a 3d 29 85 67 3d 3a ca 80 bc 98 b7 8f 3b
       0.07550711 0.056523476 -0.01572143 0.0043858998
0001f0 78 fb 4b bb 32 1c e1 3c be fa 55 3d d1 dd b0 bc
       -0.003112523 0.027479265 0.05224108 -0.021590145
000200 3b 1c 55 3d ba dc 2a bd fb 7e 9e 3c 24 57 d0 3a
       0.052028876 -0.041714408 0.019347658 0.001589511
000210 3d 2f 2e bd d5 f1 ea 3d f3 ff 2f bd f3 43 a3 3c
       -0.04252552 0.11471907 -0.0429687 0.019929862
000220 0c 52 ca 3d c7 ab 19 3d 38 77 98 bd 18 d0 84 3c
       0.098789304 0.037517335 -0.07444614 0.016212508
000230 1b 5c 29 bd 8d 50 b9 bc 15 41 99 3c 80 c8 9c bc
       -0.041347604 -0.022621417 0.018707791 -0.019138575
000240 99 fa 53 bd 59 46 1a 3d 59 e9 b1 3d d6 f0 bb 3b
       -0.05175266 0.037664745 0.08687086 0.005735497
000250 2b 64 b2 3d 93 99 e9 3c a6 67 43 3d 1d 9d 35 bd
       0.08710512 0.028515613 0.04770627 -0.044339288
000260 c5 c0 6f bd 16 47 a6 bd 75 ce fc bc 19 be b0 3c
       -0.05853345 -0.08119027 -0.030860165 0.02157502
000270 a0 b2 e7 bd 5d 2f b9 3d ca bf ae 3b 4f 77 09 3d
       -0.11313367 0.09042237 0.0053329216 0.033561047
000280 d9 7f 99 3d e6 4c 96 3d 6b 8b 71 3d 02 08 4f bd
       0.07495088 0.07338886 0.05897085 -0.050544746
000290 ef 33 cb bd fd 52 bf 3d 7f 70 8c bd a4 26 15 bd
       -0.09922015 0.09342001 -0.068573944 -0.036413804
0002a0 12 aa 82 bd 7a 09 e4 3b 66 55 5f bb bb 2e 11 bd
       -0.063800946 0.0069591375 -0.0034078 -0.035444956
0002b0 6b f7 f8 3b 99 49 bb bc d6 df 64 3d 08 b5 4d bd
       0.007597854 -0.022862243 0.05587753 -0.050221473
0002c0 18 3b a9 3d 57 e4 98 bd 17 8b 20 3d a6 b0 d3 3b
       0.08263224 -0.07465427 0.039195146 0.006460267
0002d0 15 6d 13 3c 74 a7 1a 3d fb 37 69 3d e9 1b 00 3d
       0.008998175 0.037757352 0.056938153 0.031276617
0002e0 30 59 c6 bc 01 76 01 bc 41 26 0a bc 8c 94 1c bd
       -0.02421245 -0.0079016695 -0.008431972 -0.038227603
0002f0 a0 08 ef bc 68 ad 95 bd 8c 26 56 bd 76 5a 24 bc
       -0.029178917 -0.07308465 -0.052282855 -0.010031333
000300 d1 55 32 3d bf 9d 89 bc 1b 02 b2 3d 03 fd 44 bc
       0.043538872 -0.016798852 0.08691808 -0.012023213
000310 b8 fe 65 bd 6e 16 8a bc bf df 11 3c 94 a6 bd bc
       -0.05615112 -0.016856398 0.008903443 -0.02315072

fc3.weight f4 [10, 200]
000000 a3 d3 8f 3d d6 96 b5 3d 1f dd c2 bc 97 13 8b bd
       0.070227884 0.0886666 -0.02378708 -0.06790846
000010 24 2e 14 bd 01 af 0b be c9 2f b0 bc af 06 b2 bd
       -0.036176816 -0.13640977 -0.02150716 -0.08692681
000020 4e e2 cc 3d 21 bc 68 bc f7 9d f9 bd 48 0f 15 be
       0.10004102 -0.01420501 -0.121883325 -0.1455661
000030 18 3d 2d bd f9 61 02 be 39 bd dc bb 94 94 2f 3d
       -0.04229459 -0.12732686 -0.0067364243 0.042866305
000040 e3 66 be 3d 62 09 ed bd 49 c1 88 bd 66 7d ef bc
       0.09296968 -0.11574055 -0.06677491 -0.0292346
000050 99 70 49 3d 6a f9 1b be 5c 8f ff bd c0 a5 a6 3d
       0.049179647 -0.15231863 -0.124785155 0.08137083
000060 5a 13 79 3c c9 06 b4 bc 5a 21 e4 bd 5f ad 4f 3d
       0.015202368 -0.021975892 -0.11139174 0.05070245
000070 5f e5 0f bc c9 a3 64 3d e0 f8 65 bc ce 7e 28 bd
       -0.008782714 0.05582026 -0.014036387 -0.041136555
000080 b7 d4 5b bc 54 9a a0 bc 10 33 2f 3d df bd b7 bd
       -0.013417414 -0.01960484 0.042773306 -0.08971762
000090 ee dd 1c 3d de 01 c4 bd 09 8b 0d bd 56 13 b1 3d
       0.038297586 -0.09570669 -0.034556422 0.08646266
0000a0 fa 86 d3 bd 72 fe cb 3d a8 2f 31 bd 2f ad d7 3d
       -0.10328479 0.09960641 -0.04325834 0.10531079
0000b0 63 29 8a 3c 93 42 8f bd 7d dc 15 3d 66 6b 81 3d
       0.016865438 -0.0699512 0.036587227 0.06319313
0000c0 1f c8 b1 bd 20 e6 0b 3c 19 9f 23 3d fd be 85 3d
       -0.08680748 0.008538753 0.03994665 0.06530569
0000d0 f3 a6 b5 bd 35 e5 c8 ba 66 1d 96 3d e5 f8 c1 bd
       -0.08869734 -0.0015327098 0.07329826 -0.09471301
0000e0 1f dd bc 3d 87 41 ff bc f3 14 83 3d 97 aa 41 3d
       0.09221863 -0.031159176 0.0640048 0.047281828
0000f0 4e ca b5 3d 37 81 de bd cf 2c b7 bc 44 c1 7f 3d
       0.08876477 -0.108644895 -0.022360234 0.06244017
000100 5a d5 19 be 19 8d fc 3b 06 da a3 bd 24 af 3e 3d
       -0.15022793 0.00770725 -0.08000569 0.046553746
000110 d5 46 a2 3d c9 f5 90 3d 5a d6 0c 3d 7f 14 be bd
       0.079236664 0.0707813 0.03438411 -0.09281253
000120 09 bb a4 3d d8 40 59 3c bb d3 a4 bd 7d fd bd bd
       0.080434866 0.013260089 -0.08048197 -0.09276865
000130 37 48 51 3d 52 10 7c bd e2 04 d4 3c fe b7 5b bc
       0.05109426 -0.061539 0.025881235 -0.013410566
000140 16 1f 9a 3d 45 fd d3 bd 2d af 7f 3d 7b 95 03 be
       0.075254604 -0.10351042 0.06242292 -0.12849991
000150 cd 73 fe bc 2b 2b 04 be 1b bd d8 3d ab 80 94 bd
       -0.031061077 -0.12907092 0.10582944 -0.07251104
000160 2c b3 d9 bd a5 e7 04 3c 9b f7 f4 bd 65 54 42 3d
       -0.106298774 0.008111869 -0.119612895 0.047443766
000170 81 80 a0 3d d7 a3 ab 3d a3 b3 68 bd 68 1d 75 bd
       0.0783701 0.08380859 -0.05681194 -0.059842497
000180 0a 90 29 be 77 61 be 3c 61 63 ef 3c cb 94 8c bd
       -0.16558853 0.023239834 0.029222192 -0.068643175
000190 27 15 6a bd 65 87 8b bd d3 ca 5a 3d 39 e3 59 3c
       -0.05714908 -0.06812934 0.053416084 0.013298803
0001a0 dd 84 8c bd 26 34 24 3d 64 10 19 be 16 a7 43 3d
       -0.06861279 0.040088795 -0.14947659 0.047766767
0001b0 00 ba 64 bd 93 95 05 bc 74 7c 81 bc 9f 2e a5 3d
       -0.055841446 -0.008153337 -0.015806414 0.08065533
0001c0 7a 3b 5f 3d 03 71 af bd d7 14 0b be 98 b3 36 bd
       0.05450008 -0.08566477 -0.13582169 -0.044604868
0001d0 f2 96 91 ba 34 5d 41 bd 12 e4 98 bd b1 36 1b be
       -0.0011107607 -0.047208026 -0.07465376 -0.15157582
0001e0 d7 18 ce 3d 8f d8 19 3d d4 79 9c 3d 2d 1d 1b 3d
       0.100633316 0.037560042 0.07640424 0.03786962
0001f0 24 85 95 bc af 6c 1d be 12 1a 01 bc c8 96 29 bd
       -0.018251963 -0.15373491 -0.007879751 -0.04140356
000200 dd 92 2c 3c 28 4b 34 bd b9 52 d4 3b e3 27 54 bd
       0.010533062 -0.044016987 0.006479588 -0.05179585
000210 a7 77 0a be ae d4 bb bd d7 40 1e be 38 ae 8b 3d
       -0.13522206 -0.09171425 -0.15454422 0.06820339
000220 ba 08 69 3d 4b 09 cb bd a8 9b 9f 3c f6 84 a9 bc
       0.056893088 -0.09913882 0.019483402 -0.020693284
000230 3e 6b 64 bd 19 26 9b 3c 96 51 13 3d 33 1f 98 3d
       -0.055766337 0.018939065 0.03596648 0.07427826
000240 6f 6e b6 bd 28 33 0e bd fb bf a8 bd 4b 27 ea 3d
       -0.08907782 -0.034716755 -0.08239742 0.11433276
000250 db 1e 46 3d 75 a8 56 3d 2f 1c a0 3d b6 b3 ce bd
       0.04836927 0.052406747 0.078178756 -0.10092871
000260 e4 19 6f bd 86 39 96 3d 83 2b 1c be 57 74 97 3d
       -0.0583743 0.073351905 -0.15250973 0.07395237
000270 30 3e 24 bc 82 47 ad bd ae cd 72 3d 8a 9f 84 bd
       -0.010024592 -0.08460905 0.059278183 -0.06475742
000280 94 4e a5 bd c8 8f a2 3d da 24 c1 bd ba c4 80 bc
       -0.08071628 0.0793758 -0.09430857 -0.015718807
000290 13 2f d1 3d 38 c8 cb 3b ed c8 cf 3d 6e 87 d3 bd
       0.10214057 0.0062189363 0.101457454 -0.103285655
0002a0 ed ef 93 bd d9 ff 95 bc 38 00 1b be 79 16 be 3d
       -0.072234966 -0.018310474 -0.15136802 0.0928163
0002b0 e8 06 ee bd a8 9a a4 3d b3 37 fe bd 98 1b 1c bd
       -0.11622411 0.08037311 -0.124129675 -0.038112253
0002c0 94 51 8b bd 44 2a d9 3d fb 98 9f 3d b6 fb 6f 3d
       -0.06802669 0.10603765 0.077928506 0.05858966
0002d0 cb c0 80 bd 42 d6 0d bc 31 f1 a0 3d fa 1f ad bd
       -0.06286772 -0.00865704 0.078585036 -0.08453365
0002e0 76 77 98 3d a6 c5 e9 3a 16 b1 9c 3c d0 ea 90 bd
       0.0744466 0.0017835393 0.01912741 -0.07076037
0002f0 23 97 a2 bd f1 79 00 3a 5c 92 87 3d 77 af 9c 3c
       -0.07938983 0.0004900983 0.06619713 0.019126637
000300 81 93 04 3c b0 33 10 3d 6f 5b 90 3c 9d 09 6c 3c
       0.008091808 0.035205543 0.017621724 0.014406589
000310 73 c9 77 bd 94 3e 02 be 19 e5 99 bd 7b 65 be 3d
       -0.06049485 -0.12719184 -0.075144 0.092966996
000320 58 00 5a bd 32 e8 4b bd df b0 9e bc 91 17 81 3d
       -0.053222984 -0.049781986 -0.019371448 0.06303323
000330 49 6a c6 3c d0 93 5d 3d 7c f1 5b 3d da c9 19 3d
       0.024220603 0.054096043 0.053697094 0.037546016
000340 58 5f 7d 3d 1c 27 05 be b5 f9 d4 3d 77 84 8c 3b
       0.061858505 -0.130032 0.1039919 0.004288252
000350 ca 67 48 be 77 4e a1 3d 21 a9 5c bd a5 07 fa bd
       -0.19570842 0.07876294 -0.05387223 -0.12208489
000360 36 7c 5f 3d 71 24 7f 3d 28 6b 46 3d 7a 84 ab 3d
       0.054561816 0.062290613 0.048442036 0.08374877
000370 f5 bb c9 39 b4 2a e3 3c 9a 01 be 3d e9 e6 4f bd
       0.00038477746 0.027730323 0.09277649 -0.050757322
000380 35 6e 1e 3d 99 40 25 be 96 ae 33 3d e9 11 1c 3e
       0.03867932 -0.16137923 0.04386767 0.15241207
000390 28 2d 8c bd 2f e2 a4 bd 84 8d e9 3d db a6 15 bd
       -0.0684455 -0.080509536 0.11403945 -0.03653608
0003a0 40 46 e7 3c f4 8e 49 bd 91 05 76 bd b4 0e 24 3d
       0.02823174 -0.049208596 -0.060063902 0.040053084
0003b0 63 5d 9a 3c c8 c7 90 bc c2 ab 37 bd 24 8d fd 3c
       0.018843358 -0.017673388 -0.044841535 0.03095109
0003c0 72 d1 dc bc 80 ce ba 3d 32 9b 80 bd 57 e1 c4 bd
       -0.02695534 0.09121418 -0.06279601 -0.09613293
0003d0 6c 23 75 3b e0 3b 94 bd 5b 0d 77 3d 0d 54 eb bd
       0.0037405146 -0.07237983 0.06031547 -0.11490641
0003e0 d0 34 e4 3d ca cc e6 3d 10 da 05 3d 77 08 0f bd
       0.11142886 0.11269529 0.032678664 -0.034920182
0003f0 16 5a ed 3b f8 68 d9 3d 53 72 ef bd e5 0d 92 3d
       0.007243405 0.10615724 -0.116917275 0.071315564

fc3.bias f4 [10]
000000 74 07 2f bd 0f ab 0e 3d 82 42 2f 3d ec 53 94 bd
       -0.042731717 0.034831103 0.042788036 -0.07242569
000010 7f 08 c8 bc ca ea e6 bc a7 c8 35 bd 93 0c d1 bc
       -0.024418114 -0.028188128 -0.04438081 -0.025518691
000020 5d b1 91 bd a5 c3 35 bc
       -0.071139075 -0.011094009
